backend/data.pth (torch, 7807 bytes, 6 tensors)

l1.weight f4 [8, 106]
00000000: 20c5 a83c 779d c9be 2f43 a5be 69ca a5be
00000010: 06d3 9fbe 011a e53e 14d1 b93e 6338 c53e
00000020: fde5 163f 3d67 d33e 5f14 133f 43e2 89be
00000030: 5be9 c3be 0537 93be 18f3 033f 81c8 a3bd
00000040: a8ae 863e f842 063f 895d aabe e04a 20be
00000050: 66de 2ebf 6762 0d3f 64ff 613e 393e 5f3e
00000060: e4c3 8e3e c2b5 eb3e 7bbc aabe ec58 fc3d
00000070: e4d7 a33e 5a90 aebe 7b76 20bd 8a40 eebd
00000080: 9efb 92be 6171 393e bece 2b3f bad2 56be
00000090: dea1 9e3e 667e 123f 278e 5c3f 5a59 053f
000000a0: 377e e63e 1645 d5be 9a7d 803f 9af9 833e
000000b0: 2d84 933e 6b32 2ebf d080 e83e c2a1 1c3f
000000c0: d3fa ccbe cdb9 233f e194 203f 1e85 db3e
000000d0: c826 393e cbce 0f3e 9bc9 d43e f5c2 c2be
000000e0: 3b95 e33e fc23 433f 177f a03e c66b f43e
000000f0: 2caa c6be 5201 303e 05a8 67be deaf 383f
00000100: 2802 67be 4873 133c 6d49 8e3e f200 b63d
00000110: c7a3 083f 0321 833e ee96 f83e d6ee 003f
00000120: e23a f53e 9523 8fbe 3b45 c3be c224 f23e
00000130: 4430 91be c312 6f3e 2cc0 133f 497a e13e
00000140: 0330 f63d d6a5 193e 1c81 93be 4cc1 75be
00000150: 9633 87be 7e75 e73e 4f65 443f 3db7 2a3e
00000160: 7c9f 873d 4e62 083f 766c 9a3d 1316 ef3e
00000170: 91d8 2ebf 66cb 233d 3f61 293f 5f50 e7bb
00000180: f742 ea3e a142 413e 58a2 0e3f 4709 bb3e
00000190: 85fa 393f a390 b3be 5ecd b3be 7f25 533f
000001a0: a787 02be 8f9b 61bd 9df7 f3be 8d84 b0be
000001b0: 67a4 b13e 08d4 2a3e ff2d 313f 6e0b 453f
000001c0: 16a8 393f 2068 123e 3a15 ebbe f7c4 5dbe
000001d0: 63e2 163f ba5a b13d a03e 3fbd a56b 203f
000001e0: 621f c0be 5e99 a0be 12d2 02bf bc94 8fbe
000001f0: eb0e 8b3d d485 4c3f 5847 2e3f f5da b23e
00000200: 8832 48be 4039 053e 199e fdbe d772 143d
00000210: 4fee 2ebe 7120 c4be d5eb 55be 8a00 3fbe
00000220: d38d 33bd 4cde 6a3f eb55 a1bd efef 0b3f
00000230: 7875 07bf 645e 68bb 6642 08bf 40c0 3f3e
00000240: 9f65 5fbe ed8a f23e c126 86be 6e20 d9bd
00000250: 51f7 053f e26c 25bd e0b6 e1bd e5fd 283f
00000260: f4bf 4ebe 077a 2f3f cd08 423f 706a 3d3f
00000270: 24b0 383f 1c47 3f3e 61e6 84be 0d73 203f
00000280: 16d8 8c3b 4f1f c6be bd27 0abd 1b9b 0c3f
00000290: 2309 ac3e c428 34be 534d a83e d61b 993e
000002a0: 186e a3be 7ce2 e93e 525f 12be c643 1fbf
000002b0: 03ce efbd 8a25 243f a8b1 6b3e 138d debe
000002c0: 8302 b4be 46ce 07bf d4d7 ecbe 6c46 dbbe
000002d0: 35d3 073f f8e8 ddbe c1b0 e63c 4eb6 973d
000002e0: 68fc 4c3e bc08 dc3e fbdf fc3e 276a 1e3f
000002f0: 74be 88bb b611 c23e fc6c 453f efe9 b23e
00000300: 9696 2abe 65e6 133f 7a70 0bbe f6dc e0be
00000310: 68af 133f a7cd cc3e eabb ac3e b527 253e
00000320: aab0 c53e be04 ffbd 581c b23e a3d0 ec3e
00000330: 9321 6bbe 59c3 85be c5aa 063f 0b17 b63d
00000340: 29c0 1ebd 318d 7dbe 8013 10be ec4e 1c3f
00000350: 6f38 213f 7d7e e43e 3f3b f53e a419 07bd
00000360: b4a3 12bd dc77 8dbe 3381 06bf b64c 55be
00000370: 481d 923d 998f 563e 30a0 943e 3175 cbbe
00000380: cf38 323f 889b a7bd 897f d93e ba50 ab3e
00000390: 0fb5 ca3e d9fb 7b3e 233b d7be 641d 183d
000003a0: 0681 8ebd ad7f d23e 4e4c 8bbe 9f4e 03bf
000003b0: bbfc e4be ef13 513e be3e 1e3f 95b8 9cbe
000003c0: c5d8 7cbe 179b b93e b4a0 813e 5e81 023b
000003d0: 28a2 9bbe 2920 e6be 59d3 043f 3e89 853d
000003e0: 6a15 973e d0cc fb3d 92be 3d3f e661 21be
000003f0: 1982 7b3e 0fa0 d63e 5445 7ebf d518 213e
0.020601809 -0.3937795 -0.3227782 -0.3238099 -0.31215686 0.44746402 0.36292326 0.38519582
0.58944684 0.41289702 0.5745296 -0.26930436 -0.38263974 -0.28752914 0.51542807 -0.079972275
0.26305127 0.52445936 -0.33274487 -0.15653563 -0.68308103 0.55228275 0.2207008 0.2180108
0.27883828 0.46037108 -0.33346924 0.12321648 0.3200065 -0.34094507 -0.03917549 -0.116334036
-0.28707594 0.18109657 0.6711234 -0.20978823 0.3098287 0.5722412 0.8615441 0.52089465
0.4501817 -0.4165427 1.003833 0.25776368 0.2881178 -0.6804568 0.45410776 0.6118432
-0.40035114 0.63955384 0.6272717 0.42874998 0.180812 0.14043729 0.41560063 -0.38039365
0.4444979 0.7622678 0.31346962 0.47738475 -0.38801706 0.17188004 -0.22622688 0.7214335
-0.22559416 0.008999653 0.27790394 0.08886899 0.53374904 0.25611123 0.4855265 0.50364435
0.47896487 -0.27956834 -0.38138756 0.4729367 -0.28357136 0.23347001 0.57715106 0.4403861
0.12020876 0.15004668 -0.2880944 -0.23999518 -0.26406544 0.45206827 0.76717085 0.16671462
0.06622216 0.53275 0.075402185 0.4669653 -0.68299204 0.039988898 0.6616401 -0.0070591415
0.45754215 0.18873073 0.55716467 0.36530516 0.7264789 -0.35071287 -0.3511762 0.8247909
-0.1274706 -0.055079993 -0.4764985 -0.34476128 0.34695742 0.16682446 0.6921081 0.76970565
0.72522104 0.14297533 -0.45914632 -0.21657167 0.5893919 0.08659883 -0.046690583 0.6266425
-0.37523943 -0.3136701 -0.5110179 -0.28043163 0.06789955 0.79891706 0.6807761 0.34932676
-0.19550526 0.1301012 -0.4953468 0.036242332 -0.17083095 -0.38306 -0.20890744 -0.1865255
-0.043836426 0.9174545 -0.07877716 0.54662985 -0.5291362 -0.0035456652 -0.53226316 0.18725681
-0.21816109 0.47371617 -0.26201442 -0.106018886 0.523305 -0.040387042 -0.11021209 0.6601241
-0.20190412 0.68545574 0.7579468 0.73990536 0.7214377 0.1867947 -0.25957015 0.62675554
0.0042982204 -0.38695762 -0.033729304 0.5492417 0.3360072 -0.17593676 0.32871494 0.2990405
-0.31919932 0.45680606 -0.14294174 -0.6221279 -0.117092155 0.6411978 0.23016989 -0.43467006
-0.35158166 -0.53049123 -0.46258414 -0.42827165 0.5305665 -0.43341804 0.028160455 0.07407819
0.2001816 0.42975414 0.49389634 0.61880726 -0.0041730944 0.37904137 0.7711942 0.34944102
-0.16659006 0.5777343 -0.13617125 -0.4391858 0.57689524 0.4000065 0.33737117 0.16128428
0.38611346 -0.124520764 0.3478725 0.46252927 -0.22962026 -0.261256 0.52604324 0.08891114
-0.038757477 -0.24760891 -0.14069939 0.61057925 0.62976736 0.44627753 0.47896764 -0.032983437
-0.03580065 -0.27630508 -0.5254089 -0.20830044 0.07134491 0.20953216 0.29028463 -0.39737847
0.69617933 -0.08183962 0.42480114 0.33460027 0.39591262 0.24607791 -0.42037305 0.037137404
-0.06958203 0.41113034 -0.27206653 -0.5129184 -0.44724068 0.2041776 0.61814487 -0.30609575
-0.24692066 0.36251137 0.2531792 0.0019913535 -0.30397153 -0.4494641 0.5188499 0.065203175
0.29508525 0.12294924 0.7411891 -0.15760002 0.24561347 0.4191899 -0.99324536 0.15732129

l1.bias f4 [8]
00000000: 5dd7 2e3f d5ee 833f af53 743f 6af0 1b3f
00000010: 2ab7 623f b53e f43e 1237 0a3f ba56 6f3f
0.6829737 1.0307261 0.9544019 0.6091372 0.88560736 0.47704092 0.5399028 0.9349171

l2.weight f4 [8, 8]
00000000: 140d a8bf fc8f fc3e 0556 d73f 0f89 9c3e
00000010: c448 413f 72b3 133d 154c 443f a42f 7a3f
00000020: 46b8 18bf 035b 33bf b943 443f a1ce 213e
00000030: bcb8 83bf 989d b33f b84e a83f 94a9 893f
00000040: ada0 7ebe 34a6 c8bf 0b5c b43f 0b55 b63e
00000050: eb95 a53d 4913 d5be 66aa 333f 8efc 583f
00000060: dd8d 49be 0701 55bd d17d 9abe 67d4 fa3d
00000070: a1f4 6bbe 41a7 ca3d 6e52 b93d 5558 b13d
00000080: 9a2a 5b3f 6c7b 8bbe d3b5 ef3e 3254 a73f
00000090: a0d8 3ebf 49a1 ab3f a2f3 25be ff13 95bf
000000a0: c44a 603f 199c 21bf cc1b 5a3e 2d59 293f
000000b0: 1201 8e3f d5bd 453f 3d3f 31bf c5f4 753e
000000c0: 7717 9b3f 823b 5b3f aa8f d23e 649b ba3f
000000d0: c08c a6bf c613 133f 8a73 14bf 7f13 b73f
000000e0: 6357 c13f 19e6 fcbd b063 553f 73f4 16bf
000000f0: 3f59 d63f 9938 2cbf 745b 1a3d e1ee 673f
-1.3128991 0.493286 1.6823126 0.30573317 0.75501657 0.036059804 0.7667859 0.97728944
-0.5965618 -0.7006075 0.76665837 0.15801479 -1.0290751 1.4032469 1.3149023 1.0754876
-0.2486598 -1.5675721 1.4090589 0.35611758 0.08085235 -0.41616276 0.7018188 0.8476037
-0.19683023 -0.052002933 -0.30174115 0.12247544 -0.23042537 0.098951824 0.09048925 0.08659426
0.8561188 -0.272426 0.46818408 1.3072569 -0.74549294 1.3408595 -0.1620622 -1.1646727
0.87614083 -0.6312881 0.21299666 0.66151696 1.1094077 0.77242786 -0.6923712 0.24019153
1.2116536 0.85637677 0.41125232 1.4578671 -1.3011703 0.57452047 -0.579888 1.4302825
1.5104793 -0.12348575 0.83355236 -0.5896675 1.6745986 -0.6727386 0.037684873 0.90598875

l2.bias f4 [8]
00000000: 642b 883f ade0 9a3e e7d4 483e f567 d1be
00000010: c9b2 7abd a8a3 8abe 5e55 023e b47f 773d
1.0638242 0.3024954 0.19612466 -0.40899625 -0.06120566 -0.27077985 0.12727877 0.06042452

l3.weight f4 [16, 8]
00000000: c492 6ebf 55d0 1fbf 4ba6 04bf 6aa7 67bd
00000010: a28a eebe b41f 623f 1532 93bf e137 4a3f
00000020: a585 07bf 1355 c33e e770 cd3d 9c60 1d3e
00000030: 9958 b8bd 43f7 a53e 7ebb 45bd 740e e23c
00000040: 1626 d43d b9f4 a33e 11de f83e 133a cd3c
00000050: 9821 023f 8ec3 d5be de9d 58bc 5714 82bf
00000060: 782c 97bd 0236 433f 0aed c8bf 745d 79be
00000070: 5f4f e13e f7d2 48bc cd54 ba3e c565 e1bf
00000080: beee 4d3e dc31 8abf dbde 1d3f a0f0 493d
00000090: 2c54 bdbe d543 043f 65e4 bebf fd88 f63e
000000a0: 7400 003d a7cc 893e 6ce3 e13e 657e edbc
000000b0: eedf 97bf df52 2cbf 6271 13be 7ec2 b63e
000000c0: 2c52 8ebf d529 ecbe c687 84bf 5760 a9bd
000000d0: 46fa 97bf a84d 3abf 5f29 403f b73c de3e
000000e0: 3997 063f 7edc 6c3e 488a 3d3f 47e9 193c
000000f0: 475d 27bf d65c c8be 7f69 cbbf 879a 0e3e
00000100: 15a7 afbf f18f 333d 35cb 82bf 0ba5 49be
00000110: 5635 423f 5ff6 b13e d981 493f d93e 9ebf
00000120: 4a0d a63f 21c1 78bf b3af 5cbf 7e79 99be
00000130: dbb3 54bf 8005 b8bf 8c34 d4bf 3605 383f
00000140: 8555 ed3e 60ec aabf e0b0 dcbe b19e 8bbe
00000150: 07e4 c5bf 4894 163f d6a7 8e3e ddfd 753e
00000160: f547 3abf e2b6 00bf acb1 ccbe 5fc3 5f3e
00000170: 62a5 013f 3320 d93e 4343 a93d 7e1d 8c3d
00000180: c90d b2bd 346f 28bf 3805 80bf a1a2 8fbe
00000190: 1b04 d53e 168a 7dbf c3e6 103f 80fb 4ebe
000001a0: 7bb3 4e3f 4f10 3ebf 2cf5 0dbf b727 00bd
000001b0: eb17 bebe e41f 60bf 87c1 ed3e 1adf d9bf
000001c0: ef31 283f 464c 113f 445f f13e c33d 923e
000001d0: 9df2 e4bf d5e5 9abf 8bcb 943e e034 6fbf
000001e0: c6a1 373f 49d9 803f 3817 d73d 93e7 2f3e
000001f0: 397a bbbd c3ac 59bf 12d2 cbbf ef4c c4bf
-0.93192697 -0.62427264 -0.5181624 -0.056556143 -0.46590143 0.88329625 -1.1499659 0.78991514
-0.529383 0.38150844 0.100313 0.15368885 -0.09001274 0.32415208 -0.04827451 0.027594782
0.10358827 0.32022646 0.48606923 0.025052106 0.5083251 -0.4175076 -0.013221232 -1.0162457
-0.073815286 0.76254284 -1.5697339 -0.24352056 0.44005868 -0.012257329 0.36392823 -1.7609183
0.20110604 -1.0796466 0.61668175 0.049301744 -0.3697828 0.51666003 -1.491345 0.4815139
0.031250432 0.2691395 0.44118822 -0.028990934 -1.1865213 -0.6731395 -0.14398721 0.3569526
-1.1118827 -0.46125665 -1.0353935 -0.082703285 -1.1873252 -0.72774744 0.7506313 0.43405697
0.525745 0.23130986 0.74039125 0.009393997 -0.65376705 -0.39133328 -1.589157 0.13926135
-1.3722864 0.043838445 -1.0218264 -0.19691865 0.75862634 0.3475828 0.78713757 -1.236293
1.2972806 -0.9716969 -0.86205596 -0.29975504 -0.8308694 -1.4376678 -1.6578536 0.7188295
0.4635431 -1.3353386 -0.43103695 -0.2726951 -1.5460213 0.5882001 0.27862424 0.24022622
-0.7276605 -0.5027906 -0.39979303 0.21851872 0.5064298 0.4240738 0.08264782 0.06841563
-0.086940356 -0.6579468 -1.0001593 -0.28053764 0.41604695 -0.9903883 0.56602114 -0.20213127
0.80742615 -0.74243635 -0.5545223 -0.031287875 -0.37127623 -0.8754866 0.46436712 -1.702121
0.6570119 0.5675701 0.47142994 0.28562745 -1.788654 -1.2101389 0.2906154 -0.93440056
0.7173122 1.006631 0.105024755 0.17178182 -0.091541715 -0.8502924 -1.5923483 -1.5335978

l3.bias f4 [16]
00000000: b2a9 023f dc45 2fbf f580 1ebf 2132 c7be
00000010: a4aa 8bbe dae4 18bf e4f7 013d 464c 423b
00000020: 8e2f d7bd dfa9 573f cbf6 f3bd cd28 24bf
00000030: 64d3 0ebe 5880 a13d af4c 4dbe cd79 ff3e
0.51040184 -0.6846597 -0.6191552 -0.38905433 -0.27278626 -0.597242 0.031730548 0.0029647513
-0.10507117 0.8424358 -0.119123064 -0.6412476 -0.13947827 0.07885808 -0.20048784 0.49897614
